…
2022-09-13 15:08:15,786   INFO  cfg.TAG: pointrcnn
2022-09-13 15:08:15,786   INFO  cfg.EXP_GROUP_PATH: indy_models
2022-09-13 15:08:15,878   INFO  Database filter by min points Car: 8000 => 7946
2022-09-13 15:08:15,880   INFO  Loading Indy dataset
2022-09-13 15:08:16,045   INFO  Total samples for KITTI dataset: 8000
2022-09-13 15:08:20,025   INFO  PointRCNN(
  (vfe): None
  (backbone_3d): PointNet2MSG(
    (SA_modules): ModuleList(
      (0): PointnetSAModuleMSG(
        (groupers): ModuleList(
          (0): QueryAndGroup()
          (1): QueryAndGroup()
        )
        (mlps): ModuleList(
          (0): Sequential(
            (0): Conv2d(3, 16, kernel_size=(1, 1), stride=(1, 1), bias=False)
            (1): BatchNorm2d(16, eps=1e-05, momentum=0.1, affine=True, track_running_stats=True)
            (2): ReLU()
            (3): Conv2d(16, 16, kernel_size=(1, 1), stride=(1, 1), bias=False)
            (4): BatchNorm2d(16, eps=1e-05, momentum=0.1, affine=True, track_running_stats=True)
            (5): ReLU()
            (6): Conv2d(16, 32, kernel_size=(1, 1), stride=(1, 1), bias=False)
            (7): BatchNorm2d(32, eps=1e-05, momentum=0.1, affine=True, track_running_stats=True)
            (8): ReLU()
          )
          (1): Sequential(
            (0): Conv2d(3, 32, kernel_size=(1, 1), stride=(1, 1), bias=False)
            (1): BatchNorm2d(32, eps=1e-05, momentum=0.1, affine=True, track_running_stats=True)
            (2): ReLU()
            (3): Conv2d(32, 32, kernel_size=(1, 1), stride=(1, 1), bias=False)
            (4): BatchNorm2d(32, eps=1e-05, momentum=0.1, affine=True, track_running_stats=True)
            (5): ReLU()
            (6): Conv2d(32, 64, kernel_size=(1, 1), stride=(1, 1), bias=False)
            (7): BatchNorm2d(64, eps=1e-05, momentum=0.1, affine=True, track_running_stats=True)
            (8): ReLU()
          )
        )
      )
      (1): PointnetSAModuleMSG(
        (groupers): ModuleList(
          (0): QueryAndGroup()
          (1): QueryAndGroup()
        )
        (mlps): ModuleList(
          (0): Sequential(
            (0): Conv2d(99, 64, kernel_size=(1, 1), stride=(1, 1), bias=False)
            (1): BatchNorm2d(64, eps=1e-05, momentum=0.1, affine=True, track_running_stats=True)
            (2): ReLU()
            (3): Conv2d(64, 64, kernel_size=(1, 1), stride=(1, 1), bias=False)
            (4): BatchNorm2d(64, eps=1e-05, momentum=0.1, affine=True, track_running_stats=True)
            (5): ReLU()
            (6): Conv2d(64, 128, kernel_size=(1, 1), stride=(1, 1), bias=False)
            (7): BatchNorm2d(128, eps=1e-05, momentum=0.1, affine=True, track_running_stats=True)
            (8): ReLU()
          )
          (1): Sequential(
            (0): Conv2d(99, 64, kernel_size=(1, 1), stride=(1, 1), bias=False)
            (1): BatchNorm2d(64, eps=1e-05, momentum=0.1, affine=True, track_running_stats=True)
            (2): ReLU()
            (3): Conv2d(64, 96, kernel_size=(1, 1), stride=(1, 1), bias=False)
            (4): BatchNorm2d(96, eps=1e-05, momentum=0.1, affine=True, track_running_stats=True)
            (5): ReLU()
            (6): Conv2d(96, 128, kernel_size=(1, 1), stride=(1, 1), bias=False)
            (7): BatchNorm2d(128, eps=1e-05, momentum=0.1, affine=True, track_running_stats=True)
            (8): ReLU()
          )
        )
      )
      (2): PointnetSAModuleMSG(
        (groupers): ModuleList(
          (0): QueryAndGroup()
          (1): QueryAndGroup()
        )
        (mlps): ModuleList(
          (0): Sequential(
            (0): Conv2d(259, 128, kernel_size=(1, 1), stride=(1, 1), bias=False)
            (1): BatchNorm2d(128, eps=1e-05, momentum=0.1, affine=True, track_running_stats=True)
            (2): ReLU()
            (3): Conv2d(128, 196, kernel_size=(1, 1), stride=(1, 1), bias=False)
            (4): BatchNorm2d(196, eps=1e-05, momentum=0.1, affine=True, track_running_stats=True)
            (5): ReLU()
            (6): Conv2d(196, 256, kernel_size=(1, 1), stride=(1, 1), bias=False)
            (7): BatchNorm2d(256, eps=1e-05, momentum=0.1, affine=True, track_running_stats=True)
            (8): ReLU()
          )
          (1): Sequential(
            (0): Conv2d(259, 128, kernel_size=(1, 1), stride=(1, 1), bias=False)
            (1): BatchNorm2d(128, eps=1e-05, momentum=0.1, affine=True, track_running_stats=True)
            (2): ReLU()
            (3): Conv2d(128, 196, kernel_size=(1, 1), stride=(1, 1), bias=False)
            (4): BatchNorm2d(196, eps=1e-05, momentum=0.1, affine=True, track_running_stats=True)
            (5): ReLU()
            (6): Conv2d(196, 256, kernel_size=(1, 1), stride=(1, 1), bias=False)
            (7): BatchNorm2d(256, eps=1e-05, momentum=0.1, affine=True, track_running_stats=True)
            (8): ReLU()
          )
        )
      )
      (3): PointnetSAModuleMSG(
        (groupers): ModuleList(
          (0): QueryAndGroup()
          (1): QueryAndGroup()
        )
        (mlps): ModuleList(
          (0): Sequential(
            (0): Conv2d(515, 256, kernel_size=(1, 1), stride=(1, 1), bias=False)
            (1): BatchNorm2d(256, eps=1e-05, momentum=0.1, affine=True, track_running_stats=True)
            (2): ReLU()
            (3): Conv2d(256, 256, kernel_size=(1, 1), stride=(1, 1), bias=False)
            (4): BatchNorm2d(256, eps=1e-05, momentum=0.1, affine=True, track_running_stats=True)
            (5): ReLU()
            (6): Conv2d(256, 512, kernel_size=(1, 1), stride=(1, 1), bias=False)
            (7): BatchNorm2d(512, eps=1e-05, momentum=0.1, affine=True, track_running_stats=True)
            (8): ReLU()
          )
          (1): Sequential(
            (0): Conv2d(515, 256, kernel_size=(1, 1), stride=(1, 1), bias=False)
            (1): BatchNorm2d(256, eps=1e-05, momentum=0.1, affine=True, track_running_stats=True)
            (2): ReLU()
            (3): Conv2d(256, 384, kernel_size=(1, 1), stride=(1, 1), bias=False)
            (4): BatchNorm2d(384, eps=1e-05, momentum=0.1, affine=True, track_running_stats=True)
            (5): ReLU()
            (6): Conv2d(384, 512, kernel_size=(1, 1), stride=(1, 1), bias=False)
            (7): BatchNorm2d(512, eps=1e-05, momentum=0.1, affine=True, track_running_stats=True)
            (8): ReLU()
          )
        )
      )
    )
    (FP_modules): ModuleList(
      (0): PointnetFPModule(
        (mlp): Sequential(
          (0): Conv2d(256, 128, kernel_size=(1, 1), stride=(1, 1), bias=False)
          (1): BatchNorm2d(128, eps=1e-05, momentum=0.1, affine=True, track_running_stats=True)
          (2): ReLU()
          (3): Conv2d(128, 128, kernel_size=(1, 1), stride=(1, 1), bias=False)
          (4): BatchNorm2d(128, eps=1e-05, momentum=0.1, affine=True, track_running_stats=True)
          (5): ReLU()
        )
      )
      (1): PointnetFPModule(
        (mlp): Sequential(
          (0): Conv2d(608, 256, kernel_size=(1, 1), stride=(1, 1), bias=False)
          (1): BatchNorm2d(256, eps=1e-05, momentum=0.1, affine=True, track_running_stats=True)
          (2): ReLU()
          (3): Conv2d(256, 256, kernel_size=(1, 1), stride=(1, 1), bias=False)
          (4): BatchNorm2d(256, eps=1e-05, momentum=0.1, affine=True, track_running_stats=True)
          (5): ReLU()
        )
      )
      (2): PointnetFPModule(
        (mlp): Sequential(
          (0): Conv2d(768, 512, kernel_size=(1, 1), stride=(1, 1), bias=False)
          (1): BatchNorm2d(512, eps=1e-05, momentum=0.1, affine=True, track_running_stats=True)
          (2): ReLU()
          (3): Conv2d(512, 512, kernel_size=(1, 1), stride=(1, 1), bias=False)
          (4): BatchNorm2d(512, eps=1e-05, momentum=0.1, affine=True, track_running_stats=True)
          (5): ReLU()
        )
      )
      (3): PointnetFPModule(
        (mlp): Sequential(
          (0): Conv2d(1536, 512, kernel_size=(1, 1), stride=(1, 1), bias=False)
          (1): BatchNorm2d(512, eps=1e-05, momentum=0.1, affine=True, track_running_stats=True)
          (2): ReLU()
          (3): Conv2d(512, 512, kernel_size=(1, 1), stride=(1, 1), bias=False)
          (4): BatchNorm2d(512, eps=1e-05, momentum=0.1, affine=True, track_running_stats=True)
          (5): ReLU()
        )
      )
    )
  )
  (map_to_bev_module): None
  (pfe): None
  (backbone_2d): None
  (dense_head): None
  (point_head): PointHeadBox(
    (cls_loss_func): SigmoidFocalClassificationLoss()
    (reg_loss_func): WeightedSmoothL1Loss()
    (cls_layers): Sequential(
      (0): Linear(in_features=128, out_features=256, bias=False)
      (1): BatchNorm1d(256, eps=1e-05, momentum=0.1, affine=True, track_running_stats=True)
      (2): ReLU()
      (3): Linear(in_features=256, out_features=256, bias=False)
      (4): BatchNorm1d(256, eps=1e-05, momentum=0.1, affine=True, track_running_stats=True)
      (5): ReLU()
      (6): Linear(in_features=256, out_features=1, bias=True)
    )
    (box_layers): Sequential(
      (0): Linear(in_features=128, out_features=256, bias=False)
      (1): BatchNorm1d(256, eps=1e-05, momentum=0.1, affine=True, track_running_stats=True)
      (2): ReLU()
      (3): Linear(in_features=256, out_features=256, bias=False)
      (4): BatchNorm1d(256, eps=1e-05, momentum=0.1, affine=True, track_running_stats=True)
      (5): ReLU()
      (6): Linear(in_features=256, out_features=8, bias=True)
    )
  )
  (roi_head): PointRCNNHead(
    (proposal_target_layer): ProposalTargetLayer()
    (reg_loss_func): WeightedSmoothL1Loss()
    (SA_modules): ModuleList(
      (0): PointnetSAModule(
        (groupers): ModuleList(
          (0): QueryAndGroup()
        )
        (mlps): ModuleList(
          (0): Sequential(
            (0): Conv2d(131, 128, kernel_size=(1, 1), stride=(1, 1), bias=False)
            (1): BatchNorm2d(128, eps=1e-05, momentum=0.1, affine=True, track_running_stats=True)
            (2): ReLU()
            (3): Conv2d(128, 128, kernel_size=(1, 1), stride=(1, 1), bias=False)
            (4): BatchNorm2d(128, eps=1e-05, momentum=0.1, affine=True, track_running_stats=True)
            (5): ReLU()
            (6): Conv2d(128, 128, kernel_size=(1, 1), stride=(1, 1), bias=False)
            (7): BatchNorm2d(128, eps=1e-05, momentum=0.1, affine=True, track_running_stats=True)
            (8): ReLU()
          )
        )
      )
      (1): PointnetSAModule(
        (groupers): ModuleList(
          (0): QueryAndGroup()
        )
        (mlps): ModuleList(
          (0): Sequential(
            (0): Conv2d(131, 128, kernel_size=(1, 1), stride=(1, 1), bias=False)
            (1): BatchNorm2d(128, eps=1e-05, momentum=0.1, affine=True, track_running_stats=True)
            (2): ReLU()
            (3): Conv2d(128, 128, kernel_size=(1, 1), stride=(1, 1), bias=False)
            (4): BatchNorm2d(128, eps=1e-05, momentum=0.1, affine=True, track_running_stats=True)
            (5): ReLU()
            (6): Conv2d(128, 256, kernel_size=(1, 1), stride=(1, 1), bias=False)
            (7): BatchNorm2d(256, eps=1e-05, momentum=0.1, affine=True, track_running_stats=True)
            (8): ReLU()
          )
        )
      )
      (2): PointnetSAModule(
        (groupers): ModuleList(
          (0): GroupAll()
        )
        (mlps): ModuleList(
          (0): Sequential(
            (0): Conv2d(259, 256, kernel_size=(1, 1), stride=(1, 1), bias=False)
            (1): BatchNorm2d(256, eps=1e-05, momentum=0.1, affine=True, track_running_stats=True)
            (2): ReLU()
            (3): Conv2d(256, 256, kernel_size=(1, 1), stride=(1, 1), bias=False)
            (4): BatchNorm2d(256, eps=1e-05, momentum=0.1, affine=True, track_running_stats=True)
            (5): ReLU()
            (6): Conv2d(256, 512, kernel_size=(1, 1), stride=(1, 1), bias=False)
            (7): BatchNorm2d(512, eps=1e-05, momentum=0.1, affine=True, track_running_stats=True)
            (8): ReLU()
          )
        )
      )
    )
    (xyz_up_layer): Sequential(
      (0): Conv2d(5, 128, kernel_size=(1, 1), stride=(1, 1))
      (1): ReLU()
      (2): Conv2d(128, 128, kernel_size=(1, 1), stride=(1, 1))
      (3): ReLU()
    )
    (merge_down_layer): Sequential(
      (0): Conv2d(256, 128, kernel_size=(1, 1), stride=(1, 1))
      (1): ReLU()
    )
    (cls_layers): Sequential(
      (0): Conv1d(512, 256, kernel_size=(1,), stride=(1,), bias=False)
      (1): BatchNorm1d(256, eps=1e-05, momentum=0.1, affine=True, track_running_stats=True)
      (2): ReLU()
      (3): Dropout(p=0.0, inplace=False)
      (4): Conv1d(256, 256, kernel_size=(1,), stride=(1,), bias=False)
      (5): BatchNorm1d(256, eps=1e-05, momentum=0.1, affine=True, track_running_stats=True)
      (6): ReLU()
      (7): Conv1d(256, 1, kernel_size=(1,), stride=(1,))
    )
    (reg_layers): Sequential(
      (0): Conv1d(512, 256, kernel_size=(1,), stride=(1,), bias=False)
      (1): BatchNorm1d(256, eps=1e-05, momentum=0.1, affine=True, track_running_stats=True)
      (2): ReLU()
      (3): Dropout(p=0.0, inplace=False)
      (4): Conv1d(256, 256, kernel_size=(1,), stride=(1,), bias=False)
      (5): BatchNorm1d(256, eps=1e-05, momentum=0.1, affine=True, track_running_stats=True)
      (6): ReLU()
      (7): Conv1d(256, 7, kernel_size=(1,), stride=(1,))
    )
    (roipoint_pool3d_layer): RoIPointPool3d()
  )
)
2022-09-13 15:08:20,029   INFO  **********************Start training indy_models/pointrcnn(default)**********************
2022-09-13 15:08:21,001   INFO  epoch: 0/150, acc_iter=1, cur_iter=0/2000, batch_size=4, time_cost(epoch): 00:00/23:11, time_cost(all): 00:00/57:59:35, loss=6.038615703582764, d_time=0.08(0.08), f_time=0.62(0.62), b_time=0.70(0.70), lr=0.0009999999999999992
…
